Tiago_simulation_calibration/base_movement_calibration/calibration/wheel_acceleration_calibration/fit_acceleration_curve/models/good/val_loss=0.09704839314023654.pth (torch, 6746 bytes, 6 tensors)

weight f4 [35, 1]
0	0x3f55136b	0.83232754
1	0xbe5616b8	-0.20907104
2	0x3f4f53b3	0.8098709
3	0x3e64005b	0.2226576
4	0xbee18844	-0.44049275
5	0x3f16808d	0.587899
6	0xbe422aea	-0.18961683
7	0xbf1c18f2	-0.60975564
8	0xbf16bbb1	-0.58880144
9	0xbd3c5120	-0.045975804
10	0x3e68fbf0	0.22752357
11	0xbe8fd89e	-0.28094953
12	0xbdb0b775	-0.08628742
13	0x3f252326	0.6450676
14	0x3de524e9	0.11188681
15	0xbe7cd432	-0.24690321
16	0xbedddfee	-0.43334907
17	0x3f13f6c6	0.5779842
18	0xbe9ee0a9	-0.31030777
19	0xbef43011	-0.47692922
20	0xbe6cee74	-0.23137838
21	0x3e23b16e	0.15985653
22	0xbe83e489	-0.25760296
23	0x3f1c7926	0.6112236
24	0xbf01e92b	-0.5074641
25	0xbd753b6c	-0.059871122
26	0x3f1b6c83	0.6071245
27	0x3f20a301	0.62748724
28	0x3cc43c6c	0.023954593
29	0xbc80bd9b	-0.015715411
30	0xbeab53ba	-0.33462316
31	0xbdaf16dd	-0.08549283
32	0xbdd5b50c	-0.104349226
33	0x3ee132ba	0.43984014
34	0x3f476a1e	0.77896297

bias f4 [35]
0	0xbf42aa72	-0.7604133
1	0xbef0db4a	-0.47042304
2	0x3e04b58d	0.12959881
3	0x3f611247	0.87918514
4	0xbe9b6bcb	-0.30355677
5	0x3ef12d75	0.47104993
6	0x3f56a48e	0.8384484
7	0x3f09246a	0.5357119
8	0xbf3264aa	-0.6968485
9	0xbeff22a1	-0.49831107
10	0xbe8e3e0e	-0.2778172
11	0x3e55e621	0.20888568
12	0xbe29c263	-0.16578059
13	0xbf2227c3	-0.6334192
14	0xbf281ff0	-0.6567373
15	0x3d880750	0.0664202
16	0x3f46824f	0.77542585
17	0xbefe387f	-0.49652478
18	0x3f3f10cf	0.7463502
19	0x3d6741c2	0.056459196
20	0xbce33be5	-0.02773852
21	0xbecc78b8	-0.3993585
22	0x3cec962a	0.028880198
23	0x3ed6befa	0.4194258
24	0xbe3c1b36	-0.18369755
25	0x3f3cc80d	0.73742753
26	0x3e244994	0.16043693
27	0xbf41f2d7	-0.7576117
28	0xbd489ee3	-0.04897965
29	0x3f91aa42	1.1380084
30	0x3f952dc1	1.1654588
31	0xbee51a1c	-0.44746482
32	0x3f35ee52	0.7106677
33	0x3e9928d9	0.29913977
34	0x3f8a6e7c	1.0814967

weight f4 [15, 35]
0	0xbd625220	-0.0552541
1	0x3e71c8b0	0.23611712
2	0x3d30d469	0.04317132
3	0x3c905d8f	0.017622737
4	0x3e9f39e4	0.31098855
5	0xbc2ab02b	-0.010417978
6	0x3ec426de	0.38310903
7	0x3e77abbf	0.2418661
8	0x3de16f8d	0.11007605
9	0x3cd9d254	0.02658955
10	0x3da190c7	0.07888942
11	0x3eb76a96	0.35823506
12	0x3e3afa9f	0.18259667
13	0xbe16fefc	-0.14745706
14	0x3c4c4286	0.012467032
15	0x3edda7ac	0.43291986
16	0x3ead8514	0.33890593
17	0xbd77be4d	-0.06048422
18	0x3eadb124	0.3392421
19	0x3ed5712a	0.416879
20	0x3e87332a	0.26406223
21	0x3cb44876	0.022007208
22	0x3f089b90	0.5336237
23	0x3d6cc180	0.057801723
24	0x3f0d6d3a	0.5524479
25	0x3df47c55	0.11937777
26	0x3d63ebc1	0.055644754
27	0xbb8a69a1	-0.0042240177
28	0xbcd93c9f	-0.026518164
29	0x3e806a75	0.2508122
30	0x3eba55fa	0.3639372
31	0x3dfc233c	0.12311408
32	0x3e6fe561	0.23427345
33	0xbdc3aaca	-0.0955406
34	0x3d618c11	0.05506522
35	0xbd0cc8bf	-0.034371134
36	0x3ec27faa	0.37988025
37	0xbd9fc12f	-0.07800519
38	0x3dc9b5a2	0.09849097
39	0x3e71c935	0.2361191
40	0xbdd2bc9c	-0.10289881
41	0x3ecd24ed	0.40067235
42	0x3e663d23	0.2248426
43	0x3e6ae765	0.22939833
44	0x3c74b1de	0.014934985
45	0x3d0479ea	0.03234283
46	0x3de435c0	0.111430645
47	0xbc024a67	-0.007952309
48	0x3e03a516	0.12855944
49	0x3d9f5d6c	0.07781491
50	0x3e8b7794	0.27239668
51	0x3e473a43	0.19455819
52	0xbbf6f0f4	-0.007536048
53	0x3e86213a	0.26197225
54	0x3e4b8e66	0.1987854
55	0x3e047101	0.12933733
56	0x3d805677	0.06266492
57	0x3e9568c9	0.29181507
58	0xbc9eb5a7	-0.019373728
59	0x3e8a95d4	0.27067435
60	0x3e7cf885	0.24704178
61	0xbdfe7d36	-0.12426226
62	0x3e249627	0.16072904
63	0x3ca62b0f	0.020284204
64	0x3e34bb6a	0.17649618
65	0x3ed39e81	0.41331866
66	0x3e355f7e	0.17712209
67	0x3e727427	0.23677121
68	0xbd45bf57	-0.04827818
69	0x3dfe3349	0.124121256
70	0xbce49170	-0.027901381
71	0xbd3fbc06	-0.046810172
72	0x3dde3389	0.10849673
73	0x398a3597	0.0002636134
74	0xbe254d30	-0.16142726
75	0xbcbae540	-0.022814393
76	0xbe205bd2	-0.15660027
77	0xbd5a0a38	-0.0532324
78	0xbe30b02f	-0.17254709
79	0xbd83be30	-0.0643276
80	0xbd0bc314	-0.034121588
81	0xbdb0603f	-0.086121075
82	0xbe4ff522	-0.20308354
83	0xbdc1b824	-0.0945895
84	0x3da6af61	0.081389196
85	0xbd8b5edd	-0.06805203
86	0xbacca419	-0.001561287
87	0xbd8e9cad	-0.06963477
88	0xbe14d879	-0.14535703
89	0xbe682aee	-0.22672626
90	0xbd0f51a2	-0.03498996
91	0x3c512847	0.0127659505
92	0xbe52cd86	-0.20586213
93	0xbd794819	-0.060859773
94	0xbe5690e9	-0.20953716
95	0x3b30454a	0.0026896768
96	0xbd6dd4c2	-0.05806423
97	0x3d5d7be9	0.054073248
98	0xbd03d63c	-0.03218673
99	0x3e0464fb	0.12929146
100	0xbe2532e0	-0.16132689
101	0xbe028fd1	-0.12750174
102	0xbe490b62	-0.19633248
103	0x3d334be8	0.04377356
104	0x3e047c7b	0.1293811
105	0xbccc6595	-0.024950782
106	0x3dbb6473	0.091500185
107	0x3cdc5ddc	0.026900224
108	0x3e1f4ff9	0.15557851
109	0x3d9eb707	0.077497534
110	0x3d0bd5e7	0.03413954
111	0x3e204f79	0.15655316
112	0xbc3d2867	-0.011545277
113	0x3d065c22	0.03280271
114	0x3c5917e2	0.013250323
115	0xbdb0500e	-0.08609019
116	0xbcd04df5	-0.025427798
117	0x3c25c5b3	0.010117936
118	0xbdbc5759	-0.09196348
119	0xbca1eeba	-0.019767154
120	0x3d53b57e	0.051686756
121	0xbd49695e	-0.04917275
122	0xbe1f6543	-0.15565972
123	0x3e3df398	0.18549955
124	0x3e22fdc7	0.15917121
125	0xbd1bd4c1	-0.038044695
126	0x3dd4a362	0.10382725
127	0x3d360ef0	0.04444784
128	0x3d10cab6	0.03534957
129	0x3e51e20e	0.2049639
130	0x3d987e09	0.07445914
131	0xbe1ccec3	-0.15313248
132	0xbbdc76c3	-0.0067280247
133	0x3d65bb22	0.056086667
134	0x3e5f38f9	0.21799077
135	0xbd203499	-0.03911266
136	0x3eb691f9	0.35658243
137	0x3db44baf	0.08803498
138	0x3e06da76	0.13169274
139	0x3d847ee6	0.064695165
140	0x3ccd3a3d	0.025052184
141	0x3df99b85	0.12187866
142	0x3db8cea4	0.090237886
143	0x3d61f728	0.055167347
144	0x3e523ed7	0.20531784
145	0x3d802121	0.06256319
146	0x3e45a1b3	0.19299965
147	0x3e882662	0.26591784
148	0xbcff6807	-0.031177534
149	0x3e09a39c	0.13441318
150	0x3e0d367a	0.13790312
151	0x3e89dc46	0.26925868
152	0x3e43338e	0.19062635
153	0xbc33fd75	-0.010985722
154	0xbcee8cc9	-0.029119866
155	0x3db3c450	0.08777678
156	0x3de3f13f	0.111299984
157	0x3e074b7c	0.13212389
158	0x3eb61a0b	0.35566744
159	0x3e1a8181	0.15088464
160	0x3e501276	0.20319542
161	0xbd987000	-0.07443237
162	0x3eb56106	0.35425586
163	0xbcbec3e8	-0.023286775
164	0x3e1818a6	0.14853153
165	0x3d94a61a	0.07258244
166	0xbd5462a4	-0.051851884
167	0x3e03c417	0.12867771
168	0x3da4ec97	0.080529384
169	0x3e03b3dc	0.1286158
170	0x3e9cf397	0.30654594
171	0x3d3fc9e1	0.046823386
172	0x3e162b87	0.14665042
173	0x3da93eeb	0.08263954
174	0xbb659a13	-0.0035034462
175	0xbd9589a8	-0.073016465
176	0xbdcc7ed0	-0.09985125
177	0xbd3ece22	-0.046583302
178	0x3dd2a40b	0.10285195
179	0x3ce022fd	0.027360434
180	0x3d5c04c8	0.053715497
181	0x3de04460	0.109505415
182	0x3e007c15	0.12547334
183	0xbdc337af	-0.09532105
184	0x3d84837b	0.064703904
185	0xbd8b39fa	-0.067981675
186	0x3e5a43d8	0.21314943
187	0x3d57e7f9	0.05271146
188	0xbd65e7c2	-0.056129225
189	0x3d985114	0.074373394
190	0xbdb57cb9	-0.088616796
191	0x3d532cca	0.051556386
192	0xbe29de01	-0.16588594
193	0x3c6d3bfb	0.0144796325
194	0xbd8f04dc	-0.06983349
195	0x3d972faf	0.07382142
196	0xbd38d299	-0.045122717
197	0xbdba4643	-0.090954326
198	0xbe1ff93b	-0.15622418
199	0xbdbd605d	-0.092468955
200	0x3e14a1a5	0.14514787
201	0x3d32fba3	0.04369701
202	0xbe4a6a86	-0.19767198
203	0x3e4017df	0.18759106
204	0x3e8b28b3	0.2717949
205	0xbd9d0026	-0.07666044
206	0x3e622339	0.22083749
207	0x3e6873cd	0.22700424
208	0x3d885a4b	0.06657847
209	0x3c225e3e	0.009910164
210	0xbda70384	-0.081549674
211	0xbb8e8f64	-0.0043505896
212	0xbca05dec	-0.019576035
213	0x3df02708	0.117261946
214	0xbdd77b8a	-0.1052161
215	0xbd3e1e0b	-0.04641537
216	0xbd9a936e	-0.07547651
217	0x3d0f1848	0.034935266
218	0x3e1aaa5a	0.15104046
219	0x3e032a14	0.1280902
220	0xbe2e3789	-0.17013372
221	0x3e0ac220	0.13550615
222	0x3df38f36	0.1189255
223	0x3d094db5	0.033521373
224	0xbd7de007	-0.061981227
225	0xbca26ea5	-0.01982815
226	0x3e2b064e	0.16701624
227	0x3d78fb8a	0.06078676
228	0xbd7caba0	-0.06168711
229	0x3d28847b	0.04114197
230	0xbcbf9c8b	-0.023390075
231	0xbe429fde	-0.19006297
232	0xbd940043	-0.072266124
233	0x3c6b73fe	0.014370916
234	0xbdbe01a5	-0.092776574
235	0x3e24ffaa	0.16113153
236	0xbe167324	-0.1469236
237	0x3d96deb2	0.073666945
238	0x3e8b40bf	0.27197835
239	0x3e9b6028	0.303468
240	0x3dce573c	0.100752324
241	0x3d8176ea	0.06321509
242	0x3e82f497	0.25577232
243	0xbe13c08c	-0.1442892
244	0xbe390bcf	-0.18070911
245	0x3d867c3b	0.06566664
246	0xbd05da7c	-0.032679066
247	0x3dd3eae2	0.10347535
248	0x3d34a8be	0.044106238
249	0xbe89b718	-0.26897502
250	0xbcd0d3cb	-0.025491616
251	0xbe59d830	-0.21273875
252	0xbe5fb77a	-0.21847335
253	0xbc65e65b	-0.014031972
254	0xbe3e45a0	-0.18581247
255	0x3e134d78	0.1438502

bias f4 [15]
0	0x3ba68ae8	0.005082477
1	0x3e4a3ed8	0.19750535
2	0x3d5b18fc	0.053490624
3	0x3e5d2499	0.21595992
4	0x3e31da86	0.17368516
5	0x3e5c79e1	0.21530868
6	0x3e82e06d	0.25561848
7	0x3e0e83dd	0.1391749
8	0xbbe998c1	-0.0071288054
9	0x3ce6d9b3	0.028179979
10	0x3e3fe5ed	0.18740053
11	0x3d895e73	0.06707468
12	0x3ed789f4	0.42097437
13	0x3e07adfb	0.13249962
14	0x3e199d54	0.15001422

weight f4 [5, 15]
0	0xbeb30238	-0.3496263
1	0xbe990b7b	-0.2989157
2	0x3dbb4c3f	0.09145402
3	0xbd30a8a3	-0.043129575
4	0xbe01a887	-0.12661944
5	0xbf72f758	-0.94908667
6	0xbf5367b6	-0.82580125
7	0x3e36663d	0.17812438
8	0x3d8b8099	0.068116374
9	0x3e92cc1b	0.28671345
10	0xbe8f9d1f	-0.2804956
11	0xbe195a63	-0.14975886
12	0xbf5311bf	-0.82448953
13	0xbcf44ca1	-0.029821696
14	0x3dc2248c	0.09479627
15	0x3cc2c7d2	0.023776922
16	0xbe7da14a	-0.24768558
17	0xbda6eac1	-0.081502445
18	0x3d69df8c	0.057097957
19	0x3e4bd4d3	0.19905405
20	0x3e201c8d	0.15635891
21	0x3e6524b9	0.2237729
22	0x3d92d2cd	0.07169113
23	0x3cdf6827	0.027271343
24	0x3e13ab77	0.14420877
25	0xbdf0393b	-0.11729666
26	0xbe2cf603	-0.16890721
27	0x3cd64fa6	0.026161026
28	0xbe20c114	-0.15698653
29	0x3da82ff0	0.08212268
30	0xbe0cb4b9	-0.13740815
31	0xbe455f3d	-0.19274612
32	0x3e46f09f	0.19427727
33	0xbe8489cc	-0.2588638
34	0xbe058a16	-0.13040957
35	0x3ea3d468	0.3199799
36	0x3e32d0dd	0.17462488
37	0x3e4e54e8	0.20149577
38	0x3da997f1	0.08280934
39	0x3dd31a60	0.10307765
40	0xbe851102	-0.25989538
41	0xbded1b39	-0.11577458
42	0x3e31eeab	0.17376201
43	0xbe259d54	-0.16173297
44	0xbe9430d0	-0.2894349
45	0x3f6f7210	0.9353342
46	0x3f60cc1e	0.8781146
47	0x3ef43145	0.4769384
48	0x3f336be0	0.7008648
49	0x3f1f99ed	0.6234425
50	0x3f14f14a	0.5818068
51	0x3ea2edac	0.31821954
52	0x3f4a4ad0	0.79020405
53	0x3eb6e92e	0.35724777
54	0x3edc1f09	0.42992428
55	0x3f42e180	0.76125336
56	0x3f28b611	0.6590281
57	0x3ef09509	0.46988705
58	0x3f5c6579	0.86092335
59	0x3f31a6a0	0.69394875
60	0xbe772757	-0.241361
61	0xbe377ad1	-0.17917944
62	0xbd9d1717	-0.0767042
63	0x3e104ee9	0.14092602
64	0xbe44eb72	-0.1923044
65	0xbdec95ae	-0.11551987
66	0x3e1bc027	0.15210019
67	0xbdd07639	-0.10178799
68	0xbbd00965	-0.006348776
69	0x3e1efaff	0.15525435
70	0xbe6d6b45	-0.23185451
71	0x3e5ef5a2	0.21773389
72	0xbccc6b7e	-0.0249536
73	0x3e83689d	0.2566575
74	0x3e3688d2	0.1782563

bias f4 [5]
0	0x3e275014	0.16339141
1	0xbe33c1eb	-0.17554443
2	0x3e538fb2	0.20660284
3	0x3f10e44d	0.5659836
4	0x3cba1657	0.02271573
