Tiago_simulation_calibration/base_movement_calibration/calibration/wheel_acceleration_calibration/fit_acceleration_curve/models/good/val_loss=0.08945649055143197.pth (torch, 6746 bytes, 6 tensors)

weight f4 [35, 1]
00000000: 74f5 773d d566 653f b63c 243f 7ad6 1dbe
00000010: c383 083f 35be 153f d794 d6bd 7be5 a3bf
00000020: 067b 91bf 60cd 7d3f f09e 4b3f 90f9 dc3e
00000030: d8d4 69bf a625 e1be 3848 84bf f4e8 3e3f
00000040: 802e 483f 9cea 173f 11fa 383f 7d55 253f
00000050: 82ee a5be 2c93 d23e 59e4 f6be b5b8 653f
00000060: fbf6 6b3f ce8e 493f fb6a 53be 657c 33bd
00000070: f728 3d3e 8a42 bebe 6323 963e 9d99 843d
00000080: 24d6 833d 72f9 99bf 495c 24be
0.060536817 0.89610034 0.6415514 -0.15413848 0.5332605 0.5849336 -0.10477608 -1.2804407
-1.1365669 0.991415 0.79539394 0.4315915 -0.913404 -0.43974036 -1.033454 0.7457421
0.78195953 0.5934236 0.7225657 0.6458357 -0.3240853 0.41127908 -0.4822109 0.89734966
0.9217374 0.7873353 -0.20646279 -0.043819804 0.18472658 -0.3716014 0.29323873 0.06474612
0.064373285 -1.202925 -0.16050829

bias f4 [35]
00000000: 4ac9 b5be a652 55bf 65ed c23c 5734 2e3f
00000010: 170b 283e 246b 1d3f d761 68be 525b f93c
00000020: a205 efbe 5831 483f 8949 93bf f483 c93e
00000030: 4ed7 fdbc ae75 f8be 855d 203f 0143 6d3e
00000040: 3a69 d7bd 1d4f 9cbe b47a 263d eb95 60bf
00000050: 5b9c 23bf c4d4 bd3e fca5 0f3e 8909 0fbf
00000060: 3e78 2cbf f53a 243d 6b8d 5cbd bc05 e8be
00000070: 8754 24bf 2652 1a3f 81ab 673f b578 efbe
00000080: 7548 863f 4676 4dbf 551b 453f
-0.35505134 -0.83329237 0.02379484 0.68048614 0.1641048 0.6149161 -0.22693573 0.030439053
-0.46683985 0.7820029 -1.1506816 0.39358485 -0.030986454 -0.48527282 0.626427 0.23170091
-0.10518117 -0.3052911 0.040644363 -0.87728757 -0.63910455 0.3707639 0.14028162 -0.55873924
-0.67370975 0.04009529 -0.053845804 -0.45316875 -0.6419148 0.602816 0.9049607 -0.4677178
1.0490862 -0.80258596 0.7699483

weight f4 [15, 35]
00000000: 613a 073e e407 29bd 3edc 25be a949 6ebd
00000010: 3745 cb3d 79b6 8b3d 3336 9e3d 6be2 923d
00000020: 71d5 b1bd 2005 28be b13d 9fbc 3075 8fbd
00000030: 579e b2bd 9c61 2e3d 94cb fc3b 075d 20bd
00000040: fd44 dcbc ed39 683c 980c 05ba 28d9 fdbd
00000050: f896 9c3d a20e 933d ed7a 79bb 07ac ae3b
00000060: 568c 153e 690e 993d 5f62 8d3e 5568 ddbd
00000070: 35d0 d13d 7d2d bd3d 7e60 d2bd cf00 a63d
00000080: 0929 06be 552e 55bd 5c8d 1a3e 7c62 643e
00000090: a903 993d 6564 bd3d 8aa8 9b3d 1f76 cabd
000000a0: bf70 263e 5c57 2e3e f7a0 c43d c5db 933d
000000b0: 062a 473d 6cfb 16be 4beb ccbd 026a cdbd
000000c0: 5659 833c 614d 6b3d bc1c ae3d e739 253e
000000d0: 0d45 1bbe 0790 a6bd d258 083e e92b 393e
000000e0: 2a2f c5bd 0999 a43d d3b3 c3bd 8bf8 c5bd
000000f0: baec 60bd ab09 613e fb70 443e d017 db3b
00000100: c584 9f3e d632 d63d 8688 3e3e 9b39 243e
00000110: 7756 ce3d 2392 923d e34e 853e e7db 33be
00000120: b213 b4bc 4cee 483e 5beb 42be fd8c db3d
00000130: f88d 6d3e a127 f13e d5df b03e 1e08 28bd
00000140: 08c0 21be 39d4 a5bd 8081 ef3e 08ff e23e
00000150: 625c 813e 2fe2 8abd c649 3e3b d3c7 e8bc
00000160: 764b 89bd 86c1 59be 39eb 023f 0a7d e63d
00000170: aece c33e 3d15 aabe b324 a8be df80 9fbe
00000180: 6262 d63e a89e 913e 5460 f5bc 6e95 ad3e
00000190: dcb0 54bd 5b0e ab3d 71a8 193e 6284 003f
000001a0: 2f1c 2e3e 3b48 a13c 3b6e ff3d c6dd f0bd
000001b0: 543c 483b 33e4 d03d 793a 093d 82d2 2dbe
000001c0: 2c3a 243d 63ff 273d 112f 80bc df9a 0b3e
000001d0: 5d40 89bd 69d5 41bd 1092 263e ba45 35bd
000001e0: da6b 353d 8846 ca3c c0ec a7bd 5501 b6bd
000001f0: 3d5a f6bd 2bf7 98be 9a5c 1dbe 68b8 1fbd
00000200: 91dc c7bc ed43 c9bd ad47 183e a618 67be
00000210: 3121 49be d133 763d 25e3 143e 1533 18be
00000220: 3093 fa3d e3d0 22be ba04 51be fc33 44bd
00000230: a7d1 6b3d 51d0 1bbd 577a 153d ffda 42be
00000240: a130 89bd e03b 153e a954 86bd f7bd d1bd
00000250: 013f 58bd 87d8 cf3d f215 05be e4e7 b93d
00000260: b43e 00be fc41 07be f715 3cbe 1661 cc3d
00000270: 016a 56bd 1754 f13d d8ed b03d c589 e63d
00000280: bd5b 64be e253 793d b861 8fbe ad4b 153d
00000290: f34c aa3c 94b0 8f3c 76a5 cdbd b4c2 a83d
000002a0: fe6f 013e 4bbf a8be 0518 babd 0767 25be
000002b0: 9dd6 c0bd b2ca 6ebd e7fa 5cbd 5734 673e
000002c0: ffcb 01bd b221 a8bd 0c0f ab3e bc25 913d
000002d0: df2b 9b3d 65c6 963e 7a0f 2f3e ac90 003e
000002e0: d9fb 94bd 2be7 cb3a 1fe3 063e 9ff0 993e
000002f0: 16e9 ca3e 72ee 6d3e 1c0f 6cbc d0de 173e
00000300: 6952 083e 9075 6ebd 10db aabd 160d 023f
00000310: 63db 193e 9d9a a33e 7ee0 d8bd d1fe 15be
00000320: 0529 cd3c 078b 733e d508 693e b5aa 1e3e
00000330: e86b 833e 370d a13d e48c 18bc e293 8a3e
00000340: 872d 943e f101 c73e 8591 4cbd 0af5 15bd
00000350: e840 10be e834 293d c3c3 873d 70de 1bbe
00000360: 2d46 08be f3da 98be 5423 16be 49ba 10be
00000370: d82c 903d 42c7 803d f760 8ebe d6d6 2dbd
00000380: 7c01 49be c12c 94bd 969f 48bc a287 4d3d
00000390: 8eb0 263e 8627 963d 2d29 cabd 7ad9 b5bd
000003a0: a89d 2dbe 7dbb 9b3d f775 c6bd 836d b4bc
000003b0: efe9 bdbd 8d67 0e3d 22e4 3fbe 95ed 173d
000003c0: 83d0 ffbd 97e7 b13d 19fe 3fbe 2e27 c6be
000003d0: fb99 bc3d 4646 013e 9bc9 93bd 9761 d13d
000003e0: 4916 f93d c990 6d3d db8b b9bd ae4a 703e
000003f0: 6dbb 973e ccb6 0b3e e564 21be cba8 613d
0.13205864 -0.04126729 -0.16197297 -0.058175717 0.09925311 0.06821913 0.077251814 0.07172092
-0.08683289 -0.16408205 -0.019438596 -0.070047736 -0.08721607 0.042573556 0.007714698 -0.039151218
-0.026888365 0.014173967 -0.0005075424 -0.12394935 0.076459825 0.07180525 -0.0038067654 0.005330566
0.14604315 0.07473452 0.27614114 -0.108109154 0.102447905 0.09237192 -0.10272311 0.08105623
-0.13101591 -0.05204614 0.15092987 0.22303194 0.07471401 0.09247664 0.07600506 -0.09885811
0.16253947 0.17025512 0.09601014 0.07219652 0.04862406 -0.14744347 -0.10005816 -0.10029985
0.01603381 0.05744684 0.085015744 0.16135369 -0.1516306 -0.0813294 0.13315132 0.18083157
-0.096281365 0.08037002 -0.09555783 -0.096665464 -0.05491326 0.21976344 0.19183724 0.0066861883
0.31155983 0.10458915 0.18606767 0.160376 0.100750856 0.071567796 0.26036748 -0.17564355
-0.021982048 0.19622153 -0.19035093 0.10720251 0.23198688 0.47100547 0.3454577 -0.041023366
-0.1579591 -0.08097119 0.46778488 0.44335198 0.25265795 -0.06781422 0.0029035672 -0.028415596
-0.06703846 -0.2126523 0.5114017 0.11254318 0.38243622 -0.3321933 -0.328405 -0.31153008
0.41871935 0.28441358 -0.02995316 0.33903068 -0.05192648 0.083523475 0.15005662 0.50202
0.17002939 0.019687762 0.12472197 -0.1176105 0.0030553536 0.101997755 0.03350303 -0.16974834
0.04009454 0.04101504 -0.015647443 0.13633297 -0.067017294 -0.047322664 0.16266656 -0.04425595
0.04429231 0.024691835 -0.08199453 -0.08886973 -0.1202893 -0.29876074 -0.15367356 -0.038994223
-0.024397166 -0.09827409 0.14871092 -0.22567996 -0.19641568 0.06010801 0.14539774 -0.14863236
0.12235105 -0.15899996 -0.2041196 -0.04790114 0.057572987 -0.038040463 0.036493625 -0.19028853
-0.06698728 0.14573622 -0.065591164 -0.10241311 -0.05279446 0.10148721 -0.12996653 0.09077433
-0.1252392 -0.13208765 -0.18367754 0.09979455 -0.052347187 0.11783617 0.08639115 0.11256746
-0.2230062 0.060871013 -0.2800424 0.036449123 0.020788645 0.017540254 -0.10041325 0.08240262
0.12640378 -0.32958445 -0.090866126 -0.16152583 -0.09415934 -0.058298774 -0.053950217 0.2257856
-0.031688686 -0.08209552 0.33409917 0.070872754 0.07576727 0.29448238 0.17095748 0.12555188
-0.07274599 0.0015556564 0.13172577 0.30066392 0.39630955 0.23235491 -0.014407899 0.1483109
0.13312687 -0.058217585 -0.08342564 0.5080122 0.15025096 0.31953898 -0.105896935 -0.14647986
0.025043974 0.23783503 0.22757275 0.15494807 0.25668263 0.07863849 -0.009310935 0.2706595
0.28940985 0.3886867 -0.049943466 -0.03661064 -0.1408726 0.04131022 0.066291355 -0.15221572
-0.1330802 -0.29854545 -0.14661914 -0.14133562 0.07039803 0.062880054 -0.27808353 -0.04244121
-0.19629472 -0.07235099 -0.0122450795 0.050178178 0.16278288 0.07331757 -0.09871135 -0.08879371
-0.16954672 0.0760412 -0.09690469 -0.022024876 -0.09273135 0.034766722 -0.1873937 0.03709181
-0.12490942 0.086867504 -0.18749274 -0.38701767 0.09209057 0.12624463 -0.072161876 0.10223692
0.12162454 0.057999406 -0.090598784 0.23465988 0.29635182 0.1364395 -0.15761144 0.055092614

bias f4 [15]
00000000: 01fc f43d 1190 8c3e 431e 403e 981f 0b3c
00000010: 98d3 9c3c b64b 0e3e 3337 39be 1826 30bc
00000020: 074a 723e 3d48 be3c b081 193e 9900 debd
00000030: 92a9 3d3e 8450 433d 1036 863e
0.119621284 0.27453664 0.18761544 0.008491419 0.019143865 0.13896069 -0.18087463 -0.01075127
0.23661052 0.023227805 0.14990878 -0.10839958 0.18521717 0.047684208 0.2621312

weight f4 [5, 15]
00000000: c56b 0abf 47d2 8bbe e181 f2be 7923 5a3c
00000010: 3e27 3c3e 2e7a 55be 4d35 f1be 2bb1 1dbe
00000020: 8513 9abd 7a66 2ebf 6bc1 07be feac cabe
00000030: 0439 e2be 19d5 1fbf e8ba c1be 8c28 5abe
00000040: f17d ec3d af55 113d cf2c 9c3c a325 fbbd
00000050: e8e9 3bbd 6d6c 343d 6100 3a3e 97ac 1a3e
00000060: 03f0 a9bd cf67 9d3d 31ba 2b3e 2915 5abe
00000070: 9bb2 82bd 9689 4f3e 84a4 153e 9a87 78be
00000080: 6517 8cbe c55c 2b3e 3a09 3c3d bc0d b2bd
00000090: f972 053e 0bc8 25be b750 ecbd c275 283e
000000a0: 6a28 d2bd 9bde cb3d afe9 94be 097f 063e
000000b0: 22b7 a4be 504d 283e d33d f0bd bef5 6e3e
000000c0: 76b9 a2bd 94b3 7e3d c640 dfbd 935a 5a3e
000000d0: 78bd 68bd c5a0 303e 8c84 a83e 40e9 cb3c
000000e0: 08da 963e e089 4a3e 65c7 fd3e b839 d83d
000000f0: c713 813f 77f6 543f eccf 073f a56c 843f
00000100: 9232 8d3f ed24 893f 4def 9f3e 1acb 723f
00000110: 8b1d 6f3f d55c 623f 904c 663f 25a0 4d3f
00000120: fd26 5c3f 1f8f 4c3f c09c 963f
-0.54070693 -0.27308866 -0.47364715 0.013314121 0.18374345 -0.20847389 -0.47110978 -0.15399615
-0.07523254 -0.68125117 -0.13257377 -0.39585108 -0.44184124 -0.62434536 -0.3783791 -0.2130453
0.11547459 0.035482105 0.019064335 -0.12263038 -0.045877367 0.044048715 0.18164207 0.151049
-0.08297732 0.076858155 0.16770245 -0.21297134 -0.063817225 0.20267329 0.14613539 -0.24270478
-0.273616 0.16734608 0.045907237 -0.08694026 0.1303214 -0.16189592 -0.11538833 0.16451171
-0.102616146 0.09954568 -0.29084536 0.13134398 -0.3217097 0.16435742 -0.11730542 0.2333593
-0.0794553 0.062182978 -0.109010264 0.21323614 -0.056821316 0.17248829 0.32913625 0.024891496
0.2946322 0.19779158 0.49566188 0.10557884 1.008416 0.83188576 0.5305164 1.0345656
1.1031058 1.0714394 0.3123726 0.9484116 0.93404454 0.884229 0.89960575 0.80322486
0.8599699 0.79905885 1.1766586

bias f4 [5]
00000000: cf99 1e3d 9472 febd 35d3 99be 33a8 5f3e
00000010: 857b 523f
0.038720902 -0.12424198 -0.3004395 0.21841507 0.82219726
