Tiago_simulation_calibration/base_movement_calibration/calibration/wheel_acceleration_calibration/fit_acceleration_curve/models/last_model.pth (torch, 6246 bytes, 6 tensors)

weight f4 [35, 1]
000000 5d 16 9b bf 57 b0 00 3e 40 a5 14 40 6d d4 09 40
       -1.21162 0.12567268 2.322586 2.1535904
000010 21 3a 3f 3e d0 1d 08 40 f6 36 e1 bf fe f4 15 c0
       0.18674518 2.1268196 -1.7594898 -2.3430781
000020 10 fa 65 bf c0 65 c6 bf fc 5d 89 be 6a 31 9a be
       -0.8983469 -1.5499802 -0.26829517 -0.30115825
000030 34 0f b8 3f 64 b6 0e c0 40 b5 f0 bf f0 a7 1a c0
       1.437964 -2.2298822 -1.8805313 -2.4165
000040 e0 ae 07 bf 6f cb 0d 40 3c 80 de bf 1e 6a d2 bc
       -0.53001213 2.2155416 -1.7382884 -0.025685366
000050 55 3f b0 3f 0b 88 0c 3f af 76 44 3e 7d fe a0 3f
       1.3769327 0.54895085 0.19185899 1.2577664
000060 e1 80 7f be 2f 06 d8 3f 1f 3e e8 bf cb e1 f9 3e
       -0.24951507 1.6876887 -1.8143958 0.4880508
000070 82 a9 02 c0 bb 76 09 bf be a3 c6 bf cb ef f9 bf
       -2.041596 -0.53696793 -1.551872 -1.9526304
000080 71 15 2c bf a4 6a 01 c0 f4 67 06 c0
       -0.67220217 -2.0221338 -2.1000948

bias f4 [35]
000000 00 00 00 00 3b ed 71 3d 3f 9c 35 bf 51 29 be 3e
       0.0 0.05906413 -0.7094154 0.37140897
000010 0e 9e e0 3e 38 93 33 3f 00 00 00 00 00 00 00 00
       0.43870586 0.70146513 0.0 0.0
000020 00 00 00 00 00 00 00 00 00 00 00 00 00 00 00 00
       0.0 0.0 0.0 0.0
000030 8f e5 ce be 00 00 00 00 00 00 00 00 00 00 00 00
       -0.40409514 0.0 0.0 0.0
000040 00 00 00 00 a2 d1 c1 3e 00 00 00 00 00 00 00 00
       0.0 0.3785525 0.0 0.0
000050 55 00 12 3f bb 6d bb be ff 65 39 be 36 50 2f bf
       0.57031757 -0.36607155 -0.18105315 -0.6848177
000060 00 00 00 00 da 5c fc bd 00 00 00 00 9c b3 ee bf
       0.0 -0.123223975 0.0 -1.8648562
000070 00 00 00 00 00 00 00 00 00 00 00 00 00 00 00 00
       0.0 0.0 0.0 0.0
000080 00 00 00 00 00 00 00 00 00 00 00 00
       0.0 0.0 0.0

weight f4 [15, 35]
000000 bf 41 24 be 35 46 84 3c ca f5 12 3e fd 3c 37 be
       -0.16040705 0.016146759 0.14351574 -0.17894359
000010 3e bb 20 be 4c d6 74 be 2e 6c c3 3e ca 13 87 be
       -0.15696427 -0.23909873 0.38168472 -0.26382285
000020 b1 83 c3 3e 25 3e bc 3e 90 5b b7 3e 92 f5 4b be
       0.3818641 0.36766163 0.35812044 -0.19917896
000030 8b 11 6c 3e a0 92 a4 be 9d 75 28 3d ad 5e c7 3e
       0.23053567 -0.32143116 0.04112779 0.3893942
000040 2c 0e 34 bd ca 44 42 be 1c a7 b4 be 6c f4 13 be
       -0.043958828 -0.18971553 -0.35283744 -0.14448708
000050 23 1b 9d 3d fd 84 c6 be 8f 89 8e 3e 1d 83 ef 3d
       0.076711915 -0.38773337 0.27839324 0.1169493
000060 31 89 46 bc 95 bd 5f 3c 9d e8 99 be 2f 6f 8d 3e
       -0.01211767 0.01365604 -0.30060282 0.2762389
000070 e8 aa bb 3e f2 a5 8f be e2 17 33 be a7 79 78 3e
       0.3665383 -0.28056294 -0.1748958 0.24265157
000080 37 e1 89 be 8d 68 89 3e c0 38 04 bc be b1 c6 bd
       -0.26929638 0.26837578 -0.008070171 -0.097018704
000090 03 16 66 3e 7f 51 57 be 12 89 d0 bd 11 44 8d be
       0.22469334 -0.21027182 -0.10182394 -0.27590993
0000a0 c0 18 bc 3d 30 5f 69 bc 2d 65 fd bd af 7e af bc
       0.09184408 -0.014243886 -0.123728134 -0.021422712
0000b0 38 c1 fd 3d 1c 12 39 bc 03 32 44 3e 78 50 a3 3e
       0.12390369 -0.0112958215 0.19159703 0.3189733
0000c0 de f9 27 bd a9 42 16 3e bf fd 6f bd bd f5 22 be
       -0.041009776 0.14673866 -0.0585916 -0.15914054
0000d0 e2 31 46 bd 13 e5 a9 bc 7d f8 d3 bd 96 f1 87 be
       -0.048387416 -0.020739114 -0.1035013 -0.26551503
0000e0 f8 f7 18 be 87 23 57 3e 76 46 47 3d 23 80 c4 be
       -0.14938343 0.21009646 0.04865118 -0.3837901
0000f0 cf 84 d2 bd 99 84 c8 3b 50 28 be 3e e5 0a 98 3e
       -0.102792375 0.0061193225 0.3714013 0.29695812
000100 c8 9d d2 3d 75 1a 65 3e eb 4e 88 be 7f 65 f6 3d
       0.10284001 0.22373374 -0.2662271 0.120310776
000110 ae 77 a3 bc c9 69 99 3e 25 c0 cc 3e 71 d6 b0 bc
       -0.019954529 0.2996352 0.39990345 -0.021586629
000120 20 3f 65 bd e2 85 30 3e f3 c5 d3 3d 21 4c 35 be
       -0.055968404 0.17238572 0.1034049 -0.17704822
000130 15 6e 9b be 60 1d 12 be b1 98 98 be 9e e5 05 be
       -0.30357423 -0.14269018 -0.29803994 -0.13075873
000140 48 28 6f be 03 d0 85 bd 24 28 ad be d0 8f 81 3e
       -0.2335521 -0.06533816 -0.33819687 0.25305033
000150 60 19 68 3e 7f 48 0f 3e 66 a8 a9 be 1d 1d c8 bd
       0.2266593 0.13992499 -0.3313629 -0.09771178
000160 7f 5e 91 3e bc 3b 95 3e 69 e5 c3 be 33 03 bf 3e
       0.28392407 0.29147136 -0.38260964 0.37307128
000170 11 3d 67 bc f5 15 0d 3e ad 5b 39 be ec 3b 3f 3e
       -0.01411368 0.13777907 -0.18101378 0.18675202
000180 c3 98 af 3e 04 e4 c9 bc 41 0b b7 be 7c a9 06 bd
       0.34296235 -0.02464486 -0.35750774 -0.032876477
000190 be 34 8b be 7e c1 9e be c7 d5 c4 3e da 85 d1 be
       -0.27188677 -0.31006998 0.3844435 -0.40922433
0001a0 ac 19 be 3e 8f ee 59 bd 84 ef af 3e c1 fe a3 3e
       0.3712896 -0.053206023 0.34362423 0.320303
0001b0 36 4b 87 be 18 02 8b be 57 fb eb bd 51 d8 7f bd
       -0.2642457 -0.27150035 -0.11522549 -0.062462155
0001c0 30 8d 1f 3d 37 9a 5c 3e 3b d5 d2 be 79 e7 2c be
       0.038953006 0.21543203 -0.41178307 -0.16885175
0001d0 94 c9 6b be 92 9e 1c 3e 08 81 00 3e b1 41 b5 be
       -0.23026115 0.15294865 0.12549222 -0.3540168
0001e0 f7 f4 94 3e 27 b1 f9 3c b1 5c 93 3e 7b d0 4c 3e
       0.29093143 0.03047998 0.28781655 0.20001404
0001f0 c6 9d 1c be 10 3d 81 be c4 4e ba 3e 66 37 82 3e
       -0.15294561 -0.252419 0.36388218 0.2543289
000200 84 a2 99 bd ce 61 e1 bd 4d 94 d2 3d 9d 3c d2 3d
       -0.075017005 -0.11004983 0.102821924 0.10265467
000210 a8 b4 d5 be 51 eb af 3d cc a6 e1 bd c4 54 3b be
       -0.41739392 0.08589805 -0.11018142 -0.18294054
000220 57 36 a4 be 34 85 31 3e c4 38 48 3e da 59 db 3d
       -0.32072708 0.17335969 0.19552904 0.10710497
000230 0b 06 b7 3e ad 4d a2 bc 91 ed 88 3e 49 54 af be
       0.35746798 -0.01981243 0.2674375 -0.34243992
000240 1e 3b 1f be 47 61 d0 be 8d 9f 8d be 53 c8 a1 be
       -0.15549895 -0.40699217 -0.2766079 -0.31598148
000250 1f 13 c6 3e ff dd 59 bc ce 60 47 3d 0b 5b 34 3e
       0.38686463 -0.013297557 0.048676305 0.17612855
000260 82 45 8d ba d2 76 46 3d 16 37 b0 3e 17 99 a1 be
       -0.0010778161 0.04845316 0.34417027 -0.3156211
000270 31 9b 91 3e 0e 53 8e be d8 a6 13 3e 0b 19 86 3e
       0.28438714 -0.2779774 0.14419115 0.2619098
000280 24 a3 59 3e a5 e5 8f be 00 14 9a 3d 70 d2 28 be
       0.2125364 -0.28104892 0.07523346 -0.16486526
000290 64 3e d2 be 27 88 2a 3d 37 54 55 3e 36 b7 c3 3c
       -0.41063225 0.04163375 0.20832907 0.023891073
0002a0 0e 58 8f 3e df 51 a9 3e eb 04 ad 3d 9a af c5 be
       0.27996868 0.33070275 0.08448204 -0.38610536
0002b0 62 a6 36 3e e2 ea c2 3d eb d2 02 be 99 c0 81 3e
       0.17836908 0.095174566 -0.12775771 0.25342253
0002c0 34 64 30 3e aa 3f cd be 95 04 7d 3e 10 cb b3 be
       0.17225724 -0.40087634 0.24708779 -0.35115862
0002d0 d1 b1 7e 3e 19 5f 55 3e f6 ff aa be 50 ba 25 3e
       0.24872519 0.20837058 -0.33398408 0.16184354
0002e0 99 79 1a 3e 8a be a2 be 45 b4 b0 3e b0 a3 22 be
       0.15085448 -0.31785995 0.34512535 -0.15882754
0002f0 3d c4 40 3e 9b 70 c3 3e 60 55 02 be f9 b9 4f 3e
       0.18824859 0.3817185 -0.1272788 0.20285787
000300 7a 76 27 be f2 53 3a be b8 0c f3 bd 01 98 3c 3e
       -0.16353789 -0.18196085 -0.1186766 0.1841736
000310 5f 60 1b be 57 81 3a be a8 d5 23 be b3 8a e2 3d
       -0.15173481 -0.18213402 -0.15999472 0.11061611
000320 fd c1 b1 3e e3 cd bb 3e 9b c5 ba 3e 49 af aa 3e
       0.34718314 0.36680517 0.36478886 0.33336857
000330 97 55 a8 3e e7 ad cd be 91 c4 8c 3e e9 6d 40 be
       0.328778 -0.4017174 0.27493718 -0.18791927
000340 dc 60 88 bd 66 eb ae 3e ee 24 36 3e 23 06 a9 be
       -0.066590995 0.3416397 0.17787525 -0.33012494
000350 8a 94 21 be 0f f0 b4 3e 54 2c 27 be c6 69 85 3e
       -0.1577932 0.353394 -0.16325504 0.2605726
000360 3c d5 ae 3e 42 54 ba 3e e9 61 bd bd 3d 8f b1 3e
       0.3414706 0.3639241 -0.092471905 0.34679595
000370 eb f8 b7 be 17 b1 45 be 9d ba 47 be 65 d4 74 3e
       -0.35932097 -0.19305836 -0.19504781 0.23909147
000380 81 07 c3 3d ce b9 92 3e 0f f6 c8 3e db 43 85 bd
       0.09522916 0.28657383 0.39250228 -0.06507083
000390 6d 18 35 3e 47 ca 4d be 3a c0 e9 bd 6a 5c 88 3e
       0.17685099 -0.20096694 -0.114136174 0.26633006
0003a0 72 8c 31 be 83 61 75 3e ca ed 3a 3d f6 9f b5 3e
       -0.17338732 0.23962979 0.04563693 0.35473603
0003b0 76 45 9b bd d5 02 c3 3c ff 6c 4c 3e e6 b3 3c be
       -0.07581608 0.023805061 0.19963454 -0.18428001
0003c0 6b 57 bc be 25 83 65 be 1f b1 e6 bd a8 9f cd 3e
       -0.36785445 -0.22413309 -0.11264252 0.4016087
0003d0 18 40 9c be 9e 17 90 be 84 a7 fc 3d dd 00 54 be
       -0.3051765 -0.28143018 0.123366386 -0.20703454
0003e0 d9 e6 da be 8c c5 96 be 57 c1 67 3e 0e 8f 58 3e
       -0.42754248 -0.2944759 0.22632347 0.21148321
0003f0 bb d6 6c bd ae 61 82 be c2 30 df 3d 0e eb 2e be
       -0.05782197 -0.2546515 0.10897972 -0.17081854

bias f4 [15]
000000 00 00 00 00 00 00 00 00 00 00 00 00 37 6f ad bb
       0.0 0.0 0.0 -0.005292799
000010 00 00 00 00 c3 ce 74 3e 55 28 2a bf d1 98 01 bd
       0.0 0.23906998 -0.6646779 -0.031639878
000020 00 00 00 00 d5 84 cd bf cb c8 f9 be 6e 1f 2b 3f
       0.0 -1.6056162 -0.48786005 0.6684483
000030 2f 1a 37 3f 00 00 00 00 00 00 00 00
       0.7152433 0.0 0.0

weight f4 [5, 15]
000000 e0 ec a4 bd 86 dd 85 3d 1b 4d cf 3e f1 52 f1 3e
       -0.08052993 0.06536393 0.40488514 0.47133592
000010 5e 62 a4 3e fd 73 67 3d fb 65 84 3d 4c 38 9e 3d
       0.32106298 0.0565071 0.06464764 0.077255815
000020 4e 03 21 3f 68 69 d0 bc c4 37 59 3f 46 40 c3 3f
       0.6289567 -0.025440887 0.84850717 1.525399
000030 b7 56 7b 3f ba ce 09 3e a4 17 12 3f c7 15 dc 3e
       0.9817919 0.13457766 0.5706732 0.42985365
000040 16 9d 21 3e d0 1e 84 3d 0a 2e 5c be 5f 7a a9 3e
       0.1578258 0.064511895 -0.21501938 0.33101174
000050 25 74 d1 3e 74 98 01 3f b5 ea fe 3e d3 67 b8 bd
       0.40908924 0.5062325 0.49788442 -0.09004178
000060 94 5c 91 bc a1 64 03 3f 55 d9 e2 3d 3b b3 b9 be
       -0.01774434 0.5132542 0.11076609 -0.36269554
000070 1e a6 7e 3d 27 ce 91 3e b5 2e 9d 3e 34 74 f8 3e
       0.06217014 0.28477594 0.30699697 0.48526156
000080 de 5c b7 be 26 cb 32 3e 28 bd 03 3e 7d 2b 53 be
       -0.3581304 0.17460307 0.12865126 -0.20622058
000090 0e 73 e9 3e 22 a4 af 3e b2 4d 00 3f 18 92 a7 be
       0.45595592 0.3430491 0.50118554 -0.32728648
0000a0 6a 04 60 3e 42 2c c7 be 59 d8 06 bf c0 8a ca 3e
       0.21876684 -0.38900954 -0.5267387 0.39558983
0000b0 c2 57 05 be ff 63 29 bc 44 73 10 3f e0 49 02 bf
       -0.13021758 -0.010338782 0.5642588 -0.50893974
0000c0 60 28 0b bf b4 2d 5c bd 18 80 15 bf cd c9 b0 bd
       -0.5435848 -0.053754523 -0.5839858 -0.086322404
0000d0 07 5c e7 be 50 4e 76 be f3 26 b9 3c 3e b2 2e 3e
       -0.451874 -0.24053311 0.02260158 0.17060181
0000e0 5f 4c 15 3e 65 9a 96 3d 66 ce 87 3c 78 af 99 3e
       0.14579915 0.07353667 0.01657791 0.30016685
0000f0 59 45 20 3e 46 13 93 be 9d 3a 8b be 3b 53 90 3e
       0.15651454 -0.28725642 -0.27193156 0.281885
000100 b5 af 1e be 5c 49 da bd 44 92 12 3f 3e 3e a8 be
       -0.15496714 -0.106585234 0.57254434 -0.32859987
000110 07 58 ec 3e da db 4a be 92 7e 6e 3d 48 4c 53 3e
       0.4616091 -0.19810429 0.058226176 0.20634568
000120 a6 53 8d be 27 5b 13 bf 47 4a 1b 3e
       -0.2760288 -0.5756096 0.15165053

bias f4 [5]
000000 f3 da ee 3f 00 00 00 00 b6 6e 3a bf 0f c2 1a 3d
       1.8660568 0.0 -0.7282518 0.037782725
000010 00 00 00 00
       0.0
