Tiago_simulation_calibration/base_movement_calibration/calibration/wheel_acceleration_calibration/fit_acceleration_curve/models/val_loss=0.06954211084858368.pth (torch, 6746 bytes, 6 tensors)

weight f4 [35, 1]
0	0xbdbbbf2e	-0.09167324
1	0x3ec84a16	0.39119023
2	0x3f4a8ec0	0.7912407
3	0x3f1eee7b	0.6208264
4	0xbe9f7c1c	-0.31149375
5	0xbe1bf2aa	-0.15229288
6	0x3ec16fbd	0.37780562
7	0xbf5c51d7	-0.8606238
8	0x3f4fd5b7	0.8118548
9	0x3f4a71c4	0.7907984
10	0xbf4b6a40	-0.79459
11	0x3eb5ab8d	0.35482445
12	0xbea542ea	-0.32277614
13	0xbd950c62	-0.072777525
14	0xc0035c26	-2.0524993
15	0xbd3fa2fe	-0.0467863
16	0xbdd2ccb6	-0.10292952
17	0x3f16be74	0.5888436
18	0x3f54f246	0.8318218
19	0xbd955079	-0.072907396
20	0x3f6f5531	0.93489367
21	0xbc6c5207	-0.014423854
22	0x3f0441d9	0.51662976
23	0xbdbdd28c	-0.09268674
24	0x3e2fae32	0.17156294
25	0x3eda0c94	0.4258772
26	0xbfa19575	-1.2623736
27	0x3e3cce78	0.18438137
28	0xbd51f0b6	-0.05125495
29	0xbe196ea3	-0.14983611
30	0x3f596f43	0.84935397
31	0xb8a2ec40	-7.768767e-05
32	0xbfd6ca5a	-1.6780503
33	0x3f4d5ab8	0.8021655
34	0xbf1843df	-0.59478563

bias f4 [35]
0	0x3f604496	0.87604654
1	0xbea86533	-0.3288971
2	0xbe9b94ad	-0.30386868
3	0x3eb8e23c	0.36110103
4	0xbee6afa5	-0.4505588
5	0xbcbee3c3	-0.023301965
6	0x3ea32a04	0.31867993
7	0x3faf92e6	1.3716705
8	0x3f70b4a1	0.9402562
9	0x3f3a0fca	0.7268034
10	0x3d7fb4f4	0.06242843
11	0xbf4b1abb	-0.7933766
12	0x3e82bf00	0.25536346
13	0x3ee59632	0.44841152
14	0x3f7ef76f	0.99596304
15	0xbf47e349	-0.78081185
16	0x3c75df27	0.015006817
17	0xbb8356d2	-0.0040081525
18	0xbf440917	-0.7657637
19	0xbf569af9	-0.8383022
20	0xbf817dd1	-1.0116521
21	0xbf2e8233	-0.6816742
22	0x3ea44443	0.3208333
23	0x3f041319	0.5159164
24	0x3ee35782	0.444027
25	0xbee59c78	-0.4484594
26	0xbed40612	-0.4141088
27	0x3e329c1d	0.17442365
28	0x3d7c0d4f	0.06153613
29	0xbe7105e9	-0.23537411
30	0x3e6cfcec	0.23143357
31	0xbe8bed63	-0.2732955
32	0x3f32c61e	0.6983355
33	0xbe7b9533	-0.24568634
34	0xbe10536f	-0.14094327

weight f4 [15, 35]
0	0x3dd5760b	0.104229055
1	0xbdba400b	-0.090942465
2	0x3d774b0e	0.060374312
3	0x3d5d6ba9	0.05405775
4	0x3e26a35e	0.16273257
5	0x3df79b6f	0.120901935
6	0xbe26ac3f	-0.16276644
7	0x3e650852	0.22366455
8	0xbda7518b	-0.0816985
9	0xbe21cd2d	-0.15800925
10	0x3e1736c2	0.14766982
11	0x3d10f553	0.03539021
12	0x3de7f2db	0.11325618
13	0x3d8b0445	0.06787924
14	0x3eb47fa3	0.3525363
15	0x3e34b252	0.17646149
16	0x3e520cc8	0.20512688
17	0x3ca74571	0.020418854
18	0x3dad7089	0.0846873
19	0x3e4c95b0	0.19978976
20	0xbda39a73	-0.07988443
21	0x3d218d2a	0.039441265
22	0x3d5d432b	0.054019134
23	0x3e0b0a15	0.13578065
24	0x3e07ea6d	0.1327302
25	0xbd95c7aa	-0.073134735
26	0x3d24a4aa	0.0401961
27	0xbdb4543a	-0.088051274
28	0x3caf40aa	0.021393139
29	0x3e8b5944	0.27216542
30	0xbd89b35a	-0.06723662
31	0x3ce7facb	0.02831783
32	0x3eb0074b	0.34380564
33	0xbe06fcb4	-0.13182336
34	0x3e54a19d	0.20764776
35	0x3e399863	0.18124537
36	0xbdb14124	-0.08655003
37	0x3d41298f	0.047158774
38	0x3dccd25d	0.10001061
39	0x3eb0e08d	0.3454632
40	0x3eb06e16	0.3445899
41	0x3d4859b6	0.04891368
42	0x3e44b8a7	0.19211064
43	0x3c70ebb6	0.014704635
44	0xbbb3d832	-0.005488419
45	0x3e39f6d0	0.18160558
46	0x3d0ada7b	0.033899765
47	0x3ecf5e47	0.40501615
48	0x3eee30e3	0.46521673
49	0x3f042bbd	0.5162924
50	0x3ea52b1a	0.32259446
51	0x3ec1ea31	0.37873986
52	0x3d14c09e	0.036316507
53	0xbe01b036	-0.12664875
54	0x3c112504	0.008858923
55	0xbde26947	-0.11055236
56	0x3e981a1d	0.29707423
57	0x3d9021d7	0.070377044
58	0x3ed17432	0.40908962
59	0x3d83daf1	0.06438244
60	0xbc64d299	-0.013966226
61	0x3e169d70	0.14708495
62	0x3e1bbdd0	0.15209126
63	0x3ee80e5b	0.45323452
64	0x3e21320c	0.15741748
65	0xbd1035a5	-0.03520741
66	0x3db2a881	0.08723546
67	0x3e51fcd5	0.20506604
68	0x3e1c4c0b	0.15263383
69	0x3e8c6bcc	0.27425992
70	0xbc6170d4	-0.0137598105
71	0xbe0187f2	-0.12649515
72	0x3cc146aa	0.023593266
73	0x3e0788ef	0.1323583
74	0x3cb485be	0.02203643
75	0xbdec7b7f	-0.115469925
76	0xbd5dba76	-0.0541329
77	0xbd272e2b	-0.040815514
78	0xbdbd5e8b	-0.09246548
79	0xbdd46e9a	-0.10372658
80	0xbdd81a09	-0.10551841
81	0xbd774df0	-0.06037706
82	0x3d720193	0.059083533
83	0xbddecbd5	-0.108787216
84	0xbe8e9dd2	-0.27854782
85	0xbe4ee748	-0.20205414
86	0xbc37e135	-0.011223127
87	0x3d432823	0.0476457
88	0x3e0ae05c	0.13562149
89	0x3d7b24c5	0.061314363
90	0x3df656dd	0.120282866
91	0xbd5ad153	-0.053422283
92	0xbdcc712a	-0.09982522
93	0x3bb1d415	0.0054268935
94	0x3caaaf3f	0.020835517
95	0x3db2073b	0.08692785
96	0xbe4cc759	-0.1999792
97	0x3d916dae	0.07100998
98	0x3d1eaebb	0.038740855
99	0xb9842a21	-0.0002520839
100	0x3e168074	0.14697438
101	0xbdc90ca1	-0.09816862
102	0xbcbcddcf	-0.023054985
103	0x3e1008e0	0.14065886
104	0xbbe3e73f	-0.006955057
105	0x3d9c835d	0.07642243
106	0x3de80dd9	0.11330766
107	0x3dd22fdb	0.10263034
108	0xbe18f1d2	-0.14935997
109	0x3e5be79c	0.2147507
110	0x3e107247	0.14106093
111	0xbe23e94b	-0.16006963
112	0x3dcf848d	0.10132704
113	0xbd7f593b	-0.062340956
114	0xbdbbadb9	-0.09163994
115	0xbae960d1	-0.0017805343
116	0x3d3abcd2	0.04559023
117	0x3df9c250	0.12195265
118	0xbd914ea4	-0.07095078
119	0xbe44fd91	-0.19237353
120	0xbd4d0d39	-0.05006144
121	0x3e6998e3	0.22812228
122	0xbd9bc1c0	-0.07605314
123	0xbd23bcec	-0.03997509
124	0xbd0d9fe1	-0.0345763
125	0xbd709f4f	-0.05874568
126	0xbdce84df	-0.10083937
127	0xbd9b695c	-0.07588455
128	0x3e787106	0.24261865
129	0x3dfb0604	0.12257007
130	0x3dd51d92	0.10406031
131	0xbcfc02b2	-0.030763004
132	0xbcf768c5	-0.030201325
133	0x3e436ca5	0.19084413
134	0x3dbcb205	0.09213642
135	0x3dad9810	0.08476269
136	0xbc9ec390	-0.01938036
137	0xbe5d3559	-0.21602382
138	0x3d49c54b	0.04926042
139	0x38f06caf	0.00011464336
140	0x3dc496ba	0.09599061
141	0xbdb54762	-0.08851506
142	0xbd9e1117	-0.077181034
143	0xbd534e2c	-0.051588222
144	0x3c2c1f4f	0.010505511
145	0x3e22830f	0.15870307
146	0xbd1d511b	-0.038407426
147	0x3dd7ee89	0.10543544
148	0x3d9919d2	0.07475628
149	0xbe22af49	-0.15887178
150	0x3e54ee08	0.20793927
151	0xbdb19a70	-0.08672035
152	0x3e928040	0.28613472
153	0x3b934bcb	0.004495119
154	0xbecee701	-0.40410617
155	0x3e139e84	0.14415938
156	0x3e4ae7bd	0.19814964
157	0x3e1b3910	0.15158486
158	0xbcc813bb	-0.02442347
159	0x3e12906c	0.14312905
160	0x3db0175c	0.085982054
161	0xbe02a86f	-0.12759565
162	0xbd874a63	-0.06605985
163	0x3e1d0394	0.15333396
164	0xbcdb665e	-0.02678221
165	0xbd96ab95	-0.073569454
166	0xbbf1ca18	-0.007378828
167	0xbd0629cf	-0.032754716
168	0xbce6cf66	-0.028175067
169	0x3e21254e	0.15736887
170	0xbbec2502	-0.00720656
171	0x3e3dbf49	0.18530001
172	0xbd886a0f	-0.06660854
173	0x3d2fe99a	0.04294739
174	0x3e8f5d86	0.2800104
175	0x3d428075	0.047485787
176	0x3cd6280b	0.02614214
177	0xbe2396f4	-0.15975553
178	0xbd8c83b2	-0.068610564
179	0x3d8c3fb0	0.06848085
180	0xbca35697	-0.01993875
181	0x3ddc5683	0.10758688
182	0xbdb73b12	-0.08946814
183	0xbd8300b6	-0.0639662
184	0xbd9932ba	-0.074803784
185	0x3e58a10d	0.21155186
186	0xbe03d4e7	-0.12874185
187	0x3e4c82b5	0.19971736
188	0xbd61c785	-0.055121917
189	0x3eb33c2b	0.35006842
190	0xbc96ce8c	-0.018409036
191	0x3d968e6c	0.073513836
192	0x3e2529f1	0.1612928
193	0xbd8fecb5	-0.0702757
194	0x3e1ce6d2	0.15322426
195	0x3d8944ea	0.067025974
196	0x3e37b387	0.17939578
197	0x3e0e74f1	0.13911797
198	0xbcb142b9	-0.021638261
199	0x3e587e1a	0.21141854
200	0x3ca2ddb0	0.0198811
201	0x3e20f2d3	0.1571763
202	0x3e002704	0.12514883
203	0x3e6e117c	0.23248857
204	0x3cc1d350	0.023660332
205	0xbd86db52	-0.06584801
206	0x3cb407c5	0.021976361
207	0x3e7826a0	0.24233484
208	0xbb2daa01	-0.0026499035
209	0x3e719765	0.23592909
210	0x3e96b70b	0.29436526
211	0xbd94c54b	-0.07264193
212	0xbc4ec3f5	-0.012619962
213	0x3d8783bb	0.066169225
214	0x3e6b4bf6	0.22978196
215	0x3e609c79	0.2193469
216	0xbda39ad4	-0.079885155
217	0x3dec5443	0.11539509
218	0xbafb0825	-0.0019152208
219	0x3d155027	0.036453392
220	0x3d3bfbd5	0.045894463
221	0xbd00700b	-0.031356853
222	0x3e2bdca0	0.1678338
223	0x3ecf2a59	0.40461996
224	0x3f2f7222	0.6853353
225	0x3dc3195d	0.09526322
226	0x3ec46c6e	0.38363975
227	0xbe1b4322	-0.15162328
228	0xbbb83e2f	-0.0056226472
229	0x3e89b305	0.26894394
230	0xbc4be93e	-0.012445746
231	0x3e6db963	0.2321525
232	0xbdd92568	-0.10602838
233	0x3ec1fc7f	0.37887952
234	0xbcb2770a	-0.021785278
235	0x3cc7cf08	0.024390712
236	0x3d8dff84	0.06933501
237	0x3e0b3f40	0.13598347
238	0x3e26a4be	0.16273782
239	0x3e66992f	0.22519372
240	0xbd8ca920	-0.068681955
241	0x3d663cb0	0.05621022
242	0x3e358eb1	0.17730214
243	0xbdcee1ae	-0.10101639
244	0x3e611237	0.21979605
245	0xbc77d169	-0.015125611
246	0xbc9ef1a2	-0.019402329
247	0x3daa1187	0.08304124
248	0xbe1a2811	-0.15054347
249	0xbe147d24	-0.14500862
250	0x3da44ebb	0.08022829
251	0x3ccfaabe	0.02534997
252	0xbba3da1b	-0.0050003654
253	0x3e0d88f0	0.13821769
254	0xbdd18640	-0.10230684
255	0xbe7f8a4c	-0.249551

bias f4 [15]
0	0x3e3c5fef	0.18395971
1	0x3e67a9be	0.22623345
2	0x3d15a832	0.036537357
3	0xbe0d65d8	-0.13808382
4	0xbceb5364	-0.028726287
5	0x3e7ecaef	0.248821
6	0x3e219871	0.15780808
7	0xbdffd25d	-0.124912955
8	0x3e50050d	0.20314427
9	0x3d3070b3	0.04307623
10	0x3e0fc795	0.14040978
11	0xbe0414b3	-0.12898521
12	0xbcb506d0	-0.022097975
13	0xbd2c0d98	-0.04200515
14	0x3dd3a263	0.10333707

weight f4 [5, 15]
0	0xbf351b87	-0.7074513
1	0xbec69199	-0.38782957
2	0x3e756726	0.2396513
3	0xbedea229	-0.43483093
4	0xbec808d7	-0.39069244
5	0xbe96fdc2	-0.29490477
6	0xbf7662cc	-0.962445
7	0x3d7a9cab	0.061184566
8	0x3e7cb73e	0.24679276
9	0xbedb5a6d	-0.42842427
10	0x3c96791f	0.018368302
11	0xbd865606	-0.065593764
12	0xbf45c946	-0.77260244
13	0xbe8b6908	-0.2722857
14	0xbeda25b2	-0.42606884
15	0x3d675efc	0.05648707
16	0xbd458bf7	-0.048229184
17	0xbd193817	-0.037407007
18	0xbe557e0c	-0.20848864
19	0x3b10902a	0.0022058585
20	0x3d9ee3a7	0.07758265
21	0x3e3cb260	0.1842742
22	0xbd076a2b	-0.033060234
23	0x3dff2cfb	0.12459751
24	0x3e6c7dab	0.23094814
25	0x3e406c2d	0.18791266
26	0x3e126445	0.14296062
27	0x3dcb5fca	0.0993038
28	0x3d67fa74	0.056635335
29	0xbe4a151c	-0.19734615
30	0xbe881a30	-0.2658248
31	0xbe73c0c4	-0.23804003
32	0x3e333143	0.1749926
33	0x3e5fef50	0.21868634
34	0x3def6c83	0.11690619
35	0xbeae1fbc	-0.34008586
36	0xbe2eced9	-0.17071094
37	0xbc4dd315	-0.012562533
38	0xbe31faf0	-0.17380881
39	0xbe40290f	-0.18765663
40	0xbe884481	-0.26614764
41	0x3e6ae1d9	0.22937717
42	0x3e5d2e2a	0.21599641
43	0x3e16f087	0.14740191
44	0xbe01bc85	-0.1266957
45	0x3fc04196	1.5020015
46	0xbe0cc8f4	-0.13748533
47	0x3d3dcd4a	0.046338357
48	0x3f1fb6d4	0.6238835
49	0x3f43b06a	0.7644106
50	0x3e480ab6	0.19535336
51	0x3fde4c2a	1.7366993
52	0x3a955834	0.0011394084
53	0xbde69abe	-0.112599835
54	0x3e9a3c35	0.3012406
55	0x3d101acd	0.03518181
56	0xbe39dcd3	-0.18150644
57	0x3f7f1d26	0.9965385
58	0x3f79f7d6	0.9764379
59	0x3f636c82	0.88837445
60	0x3f225172	0.63405526
61	0x3fabe1b3	1.3428253
62	0x3f980454	1.1876321
63	0x3f4d911f	0.8029956
64	0x3f5f4af7	0.8722376
65	0x3f8ef4be	1.1168439
66	0x3f39201d	0.72314626
67	0x3f3bb071	0.73316103
68	0x3f8e45c3	1.111504
69	0x3f6df9e0	0.92959404
70	0x3f8401e8	1.0313082
71	0x3f8a7c47	1.0819176
72	0x3f4b1463	0.7932798
73	0x3f3b6430	0.7319975
74	0x3f5fd865	0.87439567

bias f4 [5]
0	0xbe69f7a3	-0.22848372
1	0x3e3e7430	0.1859901
2	0xbe8b1ae4	-0.27168953
3	0xbe1ac2ec	-0.1511342
4	0x3f2ed65b	0.6829583
